app/src/main/assets/tensorflow_model.tflite (tflite, 40468 bytes, 5 tensors)

arith.constant f4 [1, 64]
00000000: 7f05 c2ba d354 f33d 553b 343e 06e9 f33b
00000010: 0565 86bd f1e2 723d c53b e73d 7185 333b
00000020: b454 50be 4f56 4ebf 71cd dd3e 8a99 e6bc
00000030: ed0d 103c 76d4 ecbd dd48 cdbd 4206 d7bc
00000040: 734b 9c3e 3bdd 9f3e acaa 2f3b 02aa af3b
00000050: f0a7 3d3f 0726 8e3c 6753 fbbd a6eb dc3e
00000060: 71fb ef3d 4788 373e 445c 9dbc d82c e53e
00000070: 3ca4 023f 8f51 f23b c050 173e ce4f 463c
00000080: bb05 7a3e d294 be3e 1c5d 0dbe 40d2 36bc
00000090: 150b 553d 479e 56bc 1c96 77be b228 50be
000000a0: 64ad 6b3e 83c5 c7be 434d 48be 7898 3f3e
000000b0: d7d1 bb3c 8822 993e 6ed7 07bf be29 613f
000000c0: 51d5 47be 407a bcbe 38df 853e 2dc7 fa3d
000000d0: 6823 1f3d d33d 8e3d 51d7 0b3f 8879 513e
000000e0: 80f7 59be bb8a 013d 12d1 e33e e004 2cbe
000000f0: 6e06 e83e 01c1 7ebe 7e4c 8bbe ff1d f53e
-0.0014802663 0.11881413 0.17600758 0.00744355 -0.06562237 0.05929846 0.11290697 0.002739277
-0.20344812 -0.80600446 0.43320802 -0.028149385 0.008792383 -0.11563961 -0.10023663 -0.026248101
0.30526313 0.31223473 0.002680461 0.0053608427 0.7408438 0.017352117 -0.12271767 0.43148535
0.117178805 0.1792308 -0.019209035 0.44760776 0.5103185 0.0073949764 0.14776897 0.012103988
0.24416249 0.37222916 -0.1380505 -0.011158526 0.05201252 -0.01309926 -0.24178356 -0.20328024
0.23015362 -0.39017877 -0.19560723 0.18710506 0.022927208 0.29909158 -0.53063095 0.8795432
-0.19514968 -0.3681202 0.26146865 0.12245021 0.038852125 0.06945386 0.5462542 0.20456517
-0.2128582 0.031626444 0.44495445 -0.16798735 0.45317405 -0.24878313 -0.27206796 0.47874448

arith.constant1 f4 [64, 128]
00000000: 6fd0 46bd 648b f4bc 551f fdbc 8cc9 3cbd
00000010: 5462 553d 8de4 11bd 67c4 73be 3303 29be
00000020: d130 b8bd 1319 52be 2001 12bd 2642 e4bd
00000030: 184c 0ebe dd94 62be 0f33 6c3d 6acf 993a
00000040: 6018 cc3d a9cd 0b3e 6103 0ebe 08dc b13c
00000050: a08a a43d 24f4 03bd 7437 23be f6b9 45be
00000060: 8905 75bc c0ce d1bc e59d acbd eee7 d7bd
00000070: 4093 1c3e d471 36be 6b1b 19be ffc4 d4bd
00000080: d724 c7bd 7408 bdbd 4678 8f3d 28b5 12be
00000090: 675e 37bd d3af 1d3e 237a 1dbe 332c 64bd
000000a0: 8982 18be 9cab eebc 13b5 42be 2270 35be
000000b0: 902b 933d ceb2 70be b720 09bd bb06 bdbd
000000c0: 2be0 2ebe 2bf6 8f3e 983b 7c3d 1a93 663d
000000d0: 4a12 f4bc 30d0 81be 5cea 4d3d a5cf 7ebc
000000e0: ebec 183e 0877 3cbb fafb d1bd 12e9 1c3e
000000f0: 6c70 ce3d ff2d f93d 1bb4 b9bd 0bc0 9ebd
00000100: 37b2 133e 7cb1 e63d e3fe 19be 04fd c73b
00000110: 0b68 88bc f601 c93d 7696 f33d 5d54 363d
00000120: 0ceb 3dbc dee3 2fbb 6bb2 d03d 975e 3cbe
00000130: eaa0 a8bd 387b d63c b19e eebd 76cb 1cbe
00000140: b12d fdbd 641b b3bd 497e e53d 4e26 f2bc
00000150: 3a8b d93c 4112 bbb9 3be3 fabd cd23 03be
00000160: 18db 2f3e 6d9e cbbd 8e4b 553d 174b adbd
00000170: ace6 c7bb 98b8 3dbe 7a26 7a3d bd59 273d
00000180: 46ab 06be ee70 e5bd 576e 3abc da2b 45bd
00000190: e3b7 0fbe 00eb 57bd d8d9 d73d 9c6b 043e
000001a0: 588a 53bd f86b 7bbd ae6a d93d e724 3dbe
000001b0: 2318 acbd 4e03 e23d cb6e e4bd 1030 c0bc
000001c0: 5437 3dbd 5120 d2bb d328 973d 1953 2cbd
000001d0: ce41 ce3c feca 99bd e36f 773d 11c1 e63d
000001e0: 2c41 bdbd 292a 0ebe 52f0 18bd ad02 f0bd
000001f0: 328d 07be d140 fc3c fbea b33d 3260 7dbd
00000200: 34f2 e9be 37dc 42be 129f bd3e cc7c d5bd
00000210: 4c26 50bc 1ccd 9cbe 9f23 b3be 8d22 29bf
00000220: bb53 2fbe 66b1 aebd dde5 953d f36f 8cbe
00000230: e5dd 40bf e628 04bc c563 48bd 7fa1 1cbf
00000240: 011b 103e 05ff b5be 6650 b5be 01dd 89bd
00000250: 5c08 8a3c aab3 59be e507 f53e 735f db3c
00000260: 0daf 56be 4d9c 46bf f45c 90be 1793 b83c
00000270: 8c57 38be e1e3 30bd c37f a63d cfc0 0fbf
00000280: 4297 95bd defa 20be f096 8b3f c3d3 72bd
00000290: 123d 1bbd be97 babe 609a a03e 09de edbe
000002a0: 4fa9 e9bd c1a9 2a3c 0bec 813e 440a 6f3d
000002b0: 8601 11be 9285 18be f996 e8bd c1f8 3b3e
000002c0: 1b4c ca3e 1544 de3e 1512 443d 14fe a43e
000002d0: a56c 983d 9e1b 5a3e e90f 5bbe 1c30 66be
000002e0: b8cf 53bd 82d5 dc3d 3e66 6c3f e73a 933d
000002f0: 07ab 87be 943e 913d 05d6 db3d e209 133e
00000300: 0925 20bf 9fa8 70bd e7f0 383a c7c7 08be
00000310: f686 2c3e 30ae 95be 969e 0d3e a181 c33e
00000320: 3e11 ccbe 7cec de3e 0d73 1f3f b4cb 44be
00000330: 1ead 3c3e 48a0 11bf 8d0f 96bd 343b 4d3e
00000340: 111c 6dbe 3b80 95be a5ae 17bf e668 583e
00000350: 2c30 22be ea5b aebe 4f19 70be acfd efbe
00000360: 0fdf 863e 40e5 63bd e2b5 953e 099f 16bf
00000370: 63ad 40bf 079f a4be 64ad 2ebf 06f7 143e
00000380: ac37 24be a6a0 c53d afaa 53bd d480 cabb
00000390: 9187 9ebf d1e5 c63c 2cd0 fc3e ace0 1fbf
000003a0: b33e 1b3e 5f30 84bf 3561 9dbe 4842 623e
000003b0: 57ab 4e3e 2cd8 53bc 995e dfbd e07c 7bbd
000003c0: f2b1 0ebd 3f22 483d a002 10bf d4a4 8a3d
000003d0: b37f 3d3d d71f cdbd 86e3 00be 41d5 e73e
000003e0: b122 263e 0db4 e63d a98c 923e 78e0 543d
000003f0: 4803 14be 3ef4 113f ae9c b63e 1aa6 a03e
-0.04853862 -0.029851623 -0.03089873 -0.046090648 0.052095726 -0.035618354 -0.2380539 -0.16505127
-0.08993686 -0.20517378 -0.035645604 -0.11145429 -0.13896215 -0.221271 0.05766588 0.0011734788
0.09965587 0.13652672 -0.13868476 0.021711364 0.08034253 -0.032215253 -0.15939122 -0.1930922
-0.014954933 -0.025611281 -0.084285535 -0.10542284 0.15290546 -0.1781686 -0.14951865 -0.103891365
-0.097238235 -0.09230128 0.07005362 -0.14326918 -0.044767763 0.15399103 -0.15378623 -0.055706214
-0.14893545 -0.029134564 -0.19014387 -0.17718557 0.07186043 -0.23505709 -0.033478465 -0.09229799
-0.17077701 0.281175 0.06158027 0.05629263 -0.029793877 -0.25354147 0.05027233 -0.015552436
0.14934127 -0.0028757472 -0.10253139 0.15323284 0.100800365 0.12166976 -0.090675555 -0.07751473
0.14423452 0.11264321 -0.15038638 0.00610316 -0.016651174 0.09814827 0.118939325 0.04451405
-0.011591684 -0.00268387 0.101902805 -0.18395458 -0.08233817 0.026181802 -0.11651362 -0.15311989
-0.123622306 -0.08745459 0.112057276 -0.02955928 0.026555646 -0.0003568102 -0.12250372 -0.12806626
0.17173421 -0.09942327 0.052074008 -0.08461588 -0.0061004963 -0.18527448 0.06107185 0.040857065
-0.13151273 -0.1120318 -0.011378846 -0.048137523 -0.14034991 -0.052714348 0.10539597 0.12931675
-0.051645607 -0.061382264 0.10616051 -0.18471108 -0.08403041 0.110357866 -0.111539446 -0.023460418
-0.046195343 -0.006412544 0.073808335 -0.042071436 0.025177862 -0.07509421 0.060409438 0.11267293
-0.09240946 -0.1388327 -0.037338562 -0.1171926 -0.13237455 0.030792626 0.08785053 -0.061859317
-0.456926 -0.19029318 0.37035424 -0.10424194 -0.012704443 -0.30625236 -0.34988114 -0.66068345
-0.17121784 -0.0852993 0.073192336 -0.2742916 -0.75338584 -0.008066392 -0.048923273 -0.61183923
0.14072801 -0.35546127 -0.35412902 -0.06731606 0.01684969 -0.21259943 0.47857586 0.026778912
-0.20965214 -0.77582246 -0.28195918 0.022531075 -0.18002146 -0.043186072 0.08129837 -0.5615358
-0.07304241 -0.15720698 1.0905437 -0.059283983 -0.037900038 -0.36443895 0.3136778 -0.46458462
-0.11409246 0.010416449 0.253754 0.0583594 -0.14160737 -0.14894703 -0.11356921 0.18356611
0.3951119 0.43411317 0.047868807 0.32225096 0.07442597 0.21299598 -0.21392788 -0.2247929
-0.051711768 0.10782911 0.9234351 0.07188969 -0.2649767 0.07092014 0.1073418 0.14359239
-0.6255651 -0.05875456 0.000705494 -0.13357459 0.16848359 -0.29234457 0.13830027 0.38184837
-0.39856905 0.43539798 0.6228493 -0.19218332 0.18425414 -0.56885195 -0.07327185 0.20042115
-0.23155238 -0.29199395 -0.5925086 0.21133766 -0.15838689 -0.340545 -0.23447154 -0.46873224
0.26342055 -0.05563855 0.29240328 -0.5883642 -0.7526457 -0.32152578 -0.68233323 0.14547357
-0.16036862 0.09649782 -0.05167645 -0.0061799083 -1.2385122 0.024279507 0.49377573 -0.624522
0.15160637 -1.0327262 -0.30738226 0.22095597 0.20182548 -0.012929957 -0.10906715 -0.061398387
-0.03483767 0.048860785 -0.56254005 0.0676972 0.04626436 -0.100158386 -0.12586793 0.45279887
0.16224171 0.11264811 0.2862294 0.051971883 -0.14454377 0.5701331 0.35666412 0.31376725

sequential_1/dense_1_2/BiasAdd/ReadVariableOp f4 [64]
00000000: a193 a9bd cfda dc3e 0be1 77be 3702 2fbe
00000010: c98b a8be 7b3d a23c 5de2 02bf c439 02be
00000020: 37c3 aabe 3827 cfbe e9fc 483f f806 0dbe
00000030: 1f7d dfbd a6bc 983e 9135 2fbd 6253 d2bd
00000040: ce41 2a3f 32f1 eebe 5954 90be 7e73 cabd
00000050: 23b4 a83e 698d a0be ad58 02be 7074 a4be
00000060: 9a50 fa3d 1e9b ef3e aa3f e5bd 3102 b2bc
00000070: 1608 94be 11c7 16be 6c60 d03e 7d3e 743d
00000080: 8d4e 02be e0bb e1be be31 0e3e e764 88be
00000090: 31ba d53e 9fd1 00be fa77 d33e 0458 2dbe
000000a0: 5da6 59be 6864 10bf 6d47 60be 0e4a 75be
000000b0: 7d97 4cbe 1903 9bbd 6044 a2be 5b69 95be
000000c0: 53a0 89bd 1059 7b3e c5a9 90be ad13 1b3f
000000d0: 3a64 91be f863 133f 7f11 043f 25ff b73e
000000e0: 46ff 53be 080d 13be a52e 563e 0b9d dc3d
000000f0: 529d ebbd c685 a3bc 1bc1 913d 160e f7be
-0.08280111 0.43135688 -0.24206941 -0.17090689 -0.32919148 0.019804707 -0.5112665 -0.12717348
-0.33352062 -0.4045961 0.7851091 -0.1377219 -0.10912537 0.29831427 -0.042775694 -0.1026981
0.6650666 -0.46668392 -0.28189352 -0.0988531 0.32949933 -0.31357887 -0.1272914 -0.32120085
0.12222405 0.46798033 -0.111937836 -0.02172956 -0.2891242 -0.14724375 0.40698564 0.059629906
-0.12725277 -0.4408865 0.13886163 -0.26639482 0.41743615 -0.12579964 0.41302472 -0.16928107
-0.21254869 -0.5640321 -0.21902247 -0.23954031 -0.19979663 -0.0756895 -0.3169279 -0.29181942
-0.067200325 0.24545693 -0.28254524 0.605769 -0.2839678 0.57574415 0.51589197 0.35936847
-0.20702848 -0.1436044 0.20916231 0.10772141 -0.11504616 -0.01996125 0.0711691 -0.48252934

sequential_1/dense_1/BiasAdd/ReadVariableOp f4 [128]
00000000: 8443 c93e 08c9 d3be 37da 023d d53a 2cbe
00000010: 26ba 16bd 85bc 6abe 0c9e 633d 607d f23d
00000020: 7d23 b53d 6479 a9be f854 64bf 4aeb 0dbf
00000030: 45a1 0fbf e325 22be e602 983e 970b 993c
00000040: 69ab 6dbe 8bf7 0abf 7753 febe 3274 4cbe
00000050: 04c6 5ebf ebb0 76bd 085a 71be 22a4 f6be
00000060: 223e 01be 1954 e7bd 3fd7 9dbd 8a71 403e
00000070: 29a5 f33d 2e1a 783d 4ff8 55be 4dd7 1a3e
00000080: d029 d43e b668 443e f567 763d 92a3 22bd
00000090: 5753 ecbe 1eaf 083d 9d0c e63d bb7f 9ebe
000000a0: 7af2 1fbe a61f a4be 7065 cebe c59a 46be
000000b0: 4e4e 0f3e 2a6e c3bd 06df 1cbc a8d7 d73c
000000c0: a289 2dbe 63a6 57be 1cd8 ef3d 7ff7 34bf
000000d0: 9ff8 14be cc00 2d3f e756 d0bd 1c01 debe
000000e0: aca1 c2be 98b8 04be 278b 2abe 5190 83bd
000000f0: e240 4bbe 96f4 d4be 926c cf3d e930 debe
00000100: 842a cfbd 68cd cbbd 707c 5dbe 3b98 523d
00000110: 672b 873e 63e8 873e 87d8 20be fea0 8fbe
00000120: b5c3 51be c9ce 633d 963a 8e3e 571a 17bd
00000130: f2e7 a63d 8b26 bfbc 2271 45be 31e6 d8be
00000140: 4053 843d de67 183e 7af2 f6be 90cb eabc
00000150: e253 433b 2816 84be 91ab 10be 4de1 08bf
00000160: e921 fa3d b412 683e d0a7 5dbf a6e5 d63d
00000170: a5fd 88bd 55bf 8dbe 2bd3 97bd 857e aebe
00000180: 1c56 983d 25d0 06bd 3a88 cabe 979e 2f3f
00000190: 38c2 88be ea61 11be 33c2 1ebe 496b 173f
000001a0: 75ad 133f f7ff 0dbf b5e5 d83b e48b c7be
000001b0: b333 60be 7237 21bd f7d7 f0bc 0000 0000
000001c0: e91e c9bd 7b87 babe 8004 d23e d03b acbd
000001d0: d960 eabe c466 c63d 91e1 a43d 379e 9cbe
000001e0: eea9 41be 69a7 73bd 5e84 29be c547 9dbd
000001f0: ce46 77be 47b9 5bbe 6934 1c3d e769 bbbd
0.39309323 -0.41364312 0.031946387 -0.16819318 -0.03679862 -0.22923477 0.055570647 0.1184032
0.088446595 -0.33100426 -0.8919215 -0.5543715 -0.5610545 -0.15834765 0.2968971 0.018682284
-0.23209919 -0.5428397 -0.49673054 -0.199662 -0.870209 -0.060227316 -0.235695 -0.48172098
-0.12621358 -0.11295337 -0.077070706 0.18793312 0.11896736 0.060571842 -0.20895503 0.15121193
0.4143815 0.19180569 0.060157735 -0.039706774 -0.46157333 0.03337013 0.112328745 -0.30956826
-0.15619841 -0.32055396 -0.40311766 -0.19394977 0.13994715 -0.095424965 -0.009574657 0.02634795
-0.16947034 -0.21059565 0.117111415 -0.7069015 -0.14547966 0.6757934 -0.10172825 -0.4336022
-0.3801397 -0.12961042 -0.16654645 -0.064240105 -0.1984897 -0.41592854 0.1012813 -0.4339669
-0.10115531 -0.099512875 -0.216295 0.05141471 0.264003 0.26544484 -0.15707599 -0.28052515
-0.20484813 0.055617128 0.27779073 -0.036890354 0.08149709 -0.023333808 -0.19281438 -0.42363122
0.06461191 0.14883372 -0.4823187 -0.02866152 0.0029804637 -0.25798154 -0.14127947 -0.5346878
0.12213499 0.22663385 -0.86584187 0.10493021 -0.06689004 -0.27685037 -0.07413324 -0.34080902
0.07438299 -0.032913346 -0.39557058 0.68601364 -0.26710677 -0.14197508 -0.15503769 0.5914808
0.5768655 -0.55468696 0.00661918 -0.38973916 -0.21894722 -0.039359517 -0.029399855 0.0
-0.09820349 -0.36431488 0.41019058 -0.08409846 -0.45777014 0.0968757 0.08050836 -0.30589458
-0.1891248 -0.059485827 -0.165544 -0.076797046 -0.24148104 -0.21457396 0.03813592 -0.09151059

sequential_1/dense_1/MatMul f4 [128, 9]
00000000: 0f4f 3a3e 0d47 743b 2ca8 cf3d 334c 313f
00000010: 763e 48bf f0c5 8bbe 6c8c 07be 8274 14bf
00000020: 533d 0ebf 807e 57be 199d 0d3d 31b7 58be
00000030: 6246 873c 8c33 d0be 0868 d5bd 8fc7 743e
00000040: 3449 c03e ecfe 91bd bbbd 89be 16e4 ddbd
00000050: 7e4f 9abf bd4b ffbe 8062 fabe cb21 2e3e
00000060: 7949 97be 65af 2e3e 1536 89bd 83e7 c5bd
00000070: 1933 0cbe 18a1 22be 7660 05bd 5609 06be
00000080: af69 3bbe 71aa 12be 7922 333c 195b 9bbd
00000090: 996f 9b3e 02df 013e 833c ce3c 1f48 dcbe
000000a0: 7edb 8c3e 79d2 72be aff9 543e 1231 08bf
000000b0: 6727 fbbe 2ece 8c3d 6a03 45be 940a b6be
000000c0: bd1f e03a a8a3 12be f5de 92be 7fdc af3e
000000d0: 44dc 96be 94f4 a73d 46c5 c8bc 6703 363e
000000e0: b7c8 773e 59f3 78bf c78d 9dbe b45d 8abc
000000f0: 8ae3 61bd 7db1 82be e0cc ed3d 3147 4d3d
00000100: 4f39 9bbc 02b3 dabb 996f 0dc0 2c71 4d3e
00000110: 0a9f 943d a25f 433e 7160 b93d deff b93d
00000120: 502c 4abd 7da1 213d 0846 333e 8fa5 273f
00000130: e24f 19bf 9cdc acbd d26d 4dbe 042c 283e
00000140: b024 36bf dd36 fd3d 1f75 0dbe 4a33 9d3e
00000150: 11d8 9cbf 2400 e7be a22e 95be f75d 4f3e
00000160: 5105 f7be 0474 893d 921f 6c3e 9e6c 463e
00000170: 55d7 943e 6d83 5ebf 9e64 10bf 1b81 b5be
00000180: d5dc 3e3d b85a 833d 460c febd 6f8c 503e
00000190: 1411 97be b260 383e 31d7 f83e e81f 07bf
000001a0: ba72 583d 4954 26bf 18f1 c3bc 9a7c 14bf
000001b0: fd0c 043d 547e b4be d5c5 e439 3622 c4bf
000001c0: 5e4a 0a3f ecdc 4cbe 91f6 9a3d d5cd 94bc
000001d0: b05d 2abb a21c 6e3e ca58 dbbc 3664 80bd
000001e0: fe45 8dbf c3df 8f3b c881 12be 290a b43d
000001f0: 4efb 983c af30 843e e1a0 323e 0f26 a3be
00000200: adc6 1a3e 994b 773e c4aa 0cbf b028 5b3e
00000210: 07e7 323e 8a45 be3d d525 39bd 94a0 8abb
00000220: 31a9 19bf 9fdf 9cbc 8745 44bf f026 7d3e
00000230: 4bdc 6dbe 2efb 05be f550 d0ba bfd9 cbbe
00000240: 4bb0 3ebf 9cb0 153e 49e3 503d 494b 093e
00000250: 564f 403c 914c f53d 0462 c23d e5b1 91bf
00000260: 937b 1abd 8549 513e 544c 8a3d 5e9d 1f3e
00000270: c87a edbe 91fa 04bf 4628 03bf 6b01 2a3e
00000280: c9f4 a0bc 7180 ecbd 44a1 ec3e a543 71be
00000290: 83f7 42bf 53f4 24bf efd6 eabe 2e57 7abd
000002a0: dd30 9c3d e279 12bd 4be8 82be ed9a 67be
000002b0: 169a 2abb 8dfc 22be ddab 21be 102d 2ebe
000002c0: cd4b f2bd 81bb ce3c c27a 8cbd e131 1ebe
000002d0: a3c8 cb3e b29a 54bd 91c4 a8bd ecc6 343f
000002e0: fc47 62bd 0176 3fbe a21e fbbd 3238 93bc
000002f0: bc5d 3e3c b011 aebd 5581 983d b86e 963d
00000300: 312d 80bf 173b 083e dbb3 c93e 20c6 32bd
00000310: bb85 9a3d 96d7 c0be 666d fbbd 390d 9dbb
00000320: 0e69 14bf 4f7f 18be da36 bbbe 6c24 acbe
00000330: 55fa 10bf c506 9c3d df13 0abe f6b7 89bd
00000340: 35db 0ebc cecd 9fbc 0037 2c3f 4bfa 06be
00000350: 790a 95be bdd3 94bd 8b3e 52be 6727 e33c
00000360: 193f 083f 4886 64bd 8350 b9be 8439 89be
00000370: 089e 94bd d481 12be e5e9 6fbc ca92 fdbe
00000380: 6010 483e acbc cbbe f409 fabd cdb3 8cbe
00000390: adad 8dbf f653 383d 5a9b 0dbf 034b ee3d
000003a0: 8f57 383e d8e6 b8be 03dd 25bf a33a 1ebf
000003b0: a00e d73e 2b6e c93e 324c b1bc 439a 20be
000003c0: db60 9a3d ae60 0a3e bfcc bdbe 284b 973d
000003d0: 18a8 e4be 37f8 30bd e94f 23bf cc95 babe
000003e0: 6582 a1be 3fd2 14be 1348 bb3d 2a44 c13e
000003f0: 08b8 80bd 9921 e33d 1a63 a0be 8528 e0be
0.18194221 0.0037273795 0.10139498 0.69256896 -0.7822031 -0.27299452 -0.1323716 -0.57990277
-0.55562323 -0.2104435 0.034573648 -0.21163632 0.016513053 -0.40664327 -0.10420233 0.2390425
0.3755585 -0.071287006 -0.26902565 -0.108345196 -1.2055509 -0.4986247 -0.48903275 0.17005078
-0.29548243 0.17059095 -0.066997685 -0.09663298 -0.13691367 -0.15881765 -0.032562695 -0.13089499
-0.18302034 -0.1432283 0.010933512 -0.07585735 0.3035858 0.12682727 0.025175339 -0.43023774
0.2751121 -0.23713101 0.20798372 -0.53199875 -0.490535 0.06875263 -0.19239584 -0.35554945
0.0017099302 -0.14320242 -0.28685728 0.34347913 -0.29464924 0.082009465 -0.02450813 0.17774735
0.2419766 -0.9724632 -0.3077223 -0.016890384 -0.05514864 -0.25526038 0.116113424 0.05011672
-0.018948225 -0.0066741714 -2.2099364 0.20062703 0.07256897 0.1907945 0.09051598 0.09082006
-0.049358666 0.039460648 0.17507184 0.65487 -0.59887516 -0.084405154 -0.20061424 0.1642304
-0.7114973 0.1236398 -0.1381421 0.30703193 -1.2253438 -0.45117295 -0.2913714 0.20250688
-0.48246244 0.06711581 0.23058918 0.19377372 0.29070535 -0.8691929 -0.5640353 -0.35450062
0.04659732 0.064137876 -0.12404685 0.20366071 -0.29505217 0.18005636 0.48601678 -0.5278306
0.052843787 -0.6497236 -0.023918673 -0.58002627 0.03223895 -0.3525263 0.00043634945 -1.532294
0.54019725 -0.2000615 0.0756656 -0.018164555 -0.0025995784 0.2325311 -0.026775736 -0.06269114
-1.1036985 0.004390688 -0.1430732 0.087910004 0.018674519 0.25818393 0.17444183 -0.31864974
0.15114851 0.24149932 -0.5494807 0.2140224 0.17470942 0.09290607 -0.045202095 -0.004230568
-0.6002379 -0.0191496 -0.7666859 0.24721885 -0.23228566 -0.13084099 -0.0015893268 -0.39814565
-0.7448775 0.14618152 0.050998006 0.13407625 0.011737665 0.119774945 0.09491351 -1.1382414
-0.037715506 0.20438202 0.0675284 0.15587375 -0.46382737 -0.51944834 -0.5123333 0.16602103
-0.019647973 -0.11547936 0.46216786 -0.2356096 -0.7615892 -0.6443531 -0.45867106 -0.061118297
0.076265074 -0.035760768 -0.2556785 -0.22617693 -0.0026031784 -0.15916653 -0.15788217 -0.17009377
-0.11830864 0.025235893 -0.06859352 -0.15448715 0.3980151 -0.05190534 -0.08240617 0.7061603
-0.05524443 -0.18697359 -0.12261702 -0.017971132 0.011619028 -0.084994674 0.07446543 0.07345337
-1.0013791 0.13303791 0.3939503 -0.043645978 0.07545038 -0.3766448 -0.122767255 -0.004792836
-0.579728 -0.14892314 -0.36565286 -0.33621538 -0.56631976 0.07618479 -0.13484143 -0.06724541
-0.008719255 -0.019507315 0.67271423 -0.13181417 -0.29109553 -0.07266948 -0.20531671 0.02772875
0.5322128 -0.055792123 -0.36194238 -0.26801693 -0.072567046 -0.14307338 -0.014643167 -0.49526054
0.19537497 -0.39792383 -0.1220893 -0.27480927 -1.1068627 0.045001946 -0.5531517 0.11635401
0.18002151 -0.3611362 -0.6479036 -0.6180822 0.42003345 0.39341864 -0.021642778 -0.15683846
0.07538005 0.13513443 -0.3707027 0.07387382 -0.44659495 -0.043205466 -0.6379381 -0.3644241
-0.31544796 -0.14533328 0.091446064 0.37747318 -0.06285101 0.110903926 -0.31325608 -0.43780914
